22-10-10 13:04:32.764 - INFO: Namespace(aux_learning_rate=0.001, basepoint=None, batch_size=8, checkpoint=None, clip_max_norm=1.0, config=None, cuda=True, dataset='/home/qororo606/flicker', epochs=500, experiment='tester', gpu_id=0, learning_rate=0.0001, lmbda=0.0018, lsq=False, metrics='mse', model='joint-relu', num_workers=4, patch_size=(256, 256), pretrain=False, quality=1, save=True, seed=None, test_batch_size=1)
22-10-10 13:04:32.764 - INFO: JointReLU(
  (entropy_bottleneck): EntropyBottleneck(
    (likelihood_lower_bound): LowerBound()
  )
  (g_a): Sequential(
    (0): Conv2d(3, 192, kernel_size=(5, 5), stride=(2, 2), padding=(2, 2))
    (1): ReLU()
    (2): Conv2d(192, 192, kernel_size=(5, 5), stride=(2, 2), padding=(2, 2))
    (3): ReLU()
    (4): Conv2d(192, 192, kernel_size=(5, 5), stride=(2, 2), padding=(2, 2))
    (5): ReLU()
    (6): Conv2d(192, 192, kernel_size=(5, 5), stride=(2, 2), padding=(2, 2))
  )
  (g_s): Sequential(
    (0): ConvTranspose2d(192, 192, kernel_size=(5, 5), stride=(2, 2), padding=(2, 2), output_padding=(1, 1))
    (1): ReLU()
    (2): ConvTranspose2d(192, 192, kernel_size=(5, 5), stride=(2, 2), padding=(2, 2), output_padding=(1, 1))
    (3): ReLU()
    (4): ConvTranspose2d(192, 192, kernel_size=(5, 5), stride=(2, 2), padding=(2, 2), output_padding=(1, 1))
    (5): ReLU()
    (6): ConvTranspose2d(192, 3, kernel_size=(5, 5), stride=(2, 2), padding=(2, 2), output_padding=(1, 1))
  )
  (h_a): Sequential(
    (0): Conv2d(192, 192, kernel_size=(3, 3), stride=(1, 1), padding=(1, 1))
    (1): ReLU()
    (2): Conv2d(192, 192, kernel_size=(5, 5), stride=(2, 2), padding=(2, 2))
    (3): ReLU()
    (4): Conv2d(192, 192, kernel_size=(5, 5), stride=(2, 2), padding=(2, 2))
  )
  (h_s): Sequential(
    (0): ConvTranspose2d(192, 192, kernel_size=(5, 5), stride=(2, 2), padding=(2, 2), output_padding=(1, 1))
    (1): ReLU()
    (2): ConvTranspose2d(192, 288, kernel_size=(5, 5), stride=(2, 2), padding=(2, 2), output_padding=(1, 1))
    (3): ReLU()
    (4): Conv2d(288, 384, kernel_size=(3, 3), stride=(1, 1), padding=(1, 1))
  )
  (gaussian_conditional): GaussianConditional(
    (likelihood_lower_bound): LowerBound()
    (lower_bound_scale): LowerBound()
  )
  (entropy_parameters): Sequential(
    (0): Conv2d(768, 640, kernel_size=(1, 1), stride=(1, 1))
    (1): ReLU()
    (2): Conv2d(640, 512, kernel_size=(1, 1), stride=(1, 1))
    (3): ReLU()
    (4): Conv2d(512, 384, kernel_size=(1, 1), stride=(1, 1))
  )
  (context_prediction): MaskedConv2d(192, 384, kernel_size=(5, 5), stride=(1, 1), padding=(2, 2))
)
22-10-10 13:04:32.765 - INFO: Learning rate: 0.0001
22-10-10 13:04:39.590 - INFO: Train epoch 0: [    0/16574 (0%)] Loss: 18.6248 | MSE loss: 0.1559 | Bpp loss: 0.3766 | Aux loss: 7920.76
22-10-10 13:13:53.634 - INFO: Train epoch 0: [  800/16574 (5%)] Loss: 4.4846 | MSE loss: 0.0347 | Bpp loss: 0.4280 | Aux loss: 7884.82
…
