22-09-21 18:38:05.629 - INFO: Namespace(aux_learning_rate=0.001, basepoint=None, batch_size=8, checkpoint=None, clip_max_norm=1.0, config=None, cuda=True, dataset='/home/qororo606/flicker', epochs=500, experiment='Joint_ReLU_q4', gpu_id=0, learning_rate=0.0001, lmbda=0.013, lsq=False, metrics='mse', model='joint-relu', num_workers=4, patch_size=(256, 256), pretrain=False, quality=4, save=True, seed=None, test_batch_size=1)
22-09-21 18:38:05.630 - INFO: JointReLU(
  (entropy_bottleneck): EntropyBottleneck(
    (likelihood_lower_bound): LowerBound()
  )
  (g_a): Sequential(
    (0): Conv2d(3, 192, kernel_size=(5, 5), stride=(2, 2), padding=(2, 2))
    (1): ReLU()
    (2): Conv2d(192, 192, kernel_size=(5, 5), stride=(2, 2), padding=(2, 2))
    (3): ReLU()
    (4): Conv2d(192, 192, kernel_size=(5, 5), stride=(2, 2), padding=(2, 2))
    (5): ReLU()
    (6): Conv2d(192, 192, kernel_size=(5, 5), stride=(2, 2), padding=(2, 2))
  )
  (g_s): Sequential(
    (0): ConvTranspose2d(192, 192, kernel_size=(5, 5), stride=(2, 2), padding=(2, 2), output_padding=(1, 1))
    (1): ReLU()
    (2): ConvTranspose2d(192, 192, kernel_size=(5, 5), stride=(2, 2), padding=(2, 2), output_padding=(1, 1))
    (3): ReLU()
    (4): ConvTranspose2d(192, 192, kernel_size=(5, 5), stride=(2, 2), padding=(2, 2), output_padding=(1, 1))
    (5): ReLU()
    (6): ConvTranspose2d(192, 3, kernel_size=(5, 5), stride=(2, 2), padding=(2, 2), output_padding=(1, 1))
  )
  (h_a): Sequential(
    (0): Conv2d(192, 192, kernel_size=(3, 3), stride=(1, 1), padding=(1, 1))
    (1): ReLU()
    (2): Conv2d(192, 192, kernel_size=(5, 5), stride=(2, 2), padding=(2, 2))
    (3): ReLU()
    (4): Conv2d(192, 192, kernel_size=(5, 5), stride=(2, 2), padding=(2, 2))
  )
  (h_s): Sequential(
    (0): ConvTranspose2d(192, 192, kernel_size=(5, 5), stride=(2, 2), padding=(2, 2), output_padding=(1, 1))
    (1): ReLU()
    (2): ConvTranspose2d(192, 288, kernel_size=(5, 5), stride=(2, 2), padding=(2, 2), output_padding=(1, 1))
    (3): ReLU()
    (4): Conv2d(288, 384, kernel_size=(3, 3), stride=(1, 1), padding=(1, 1))
  )
  (gaussian_conditional): GaussianConditional(
    (likelihood_lower_bound): LowerBound()
    (lower_bound_scale): LowerBound()
  )
  (entropy_parameters): Sequential(
    (0): Conv2d(768, 640, kernel_size=(1, 1), stride=(1, 1))
    (1): ReLU()
    (2): Conv2d(640, 512, kernel_size=(1, 1), stride=(1, 1))
    (3): ReLU()
    (4): Conv2d(512, 384, kernel_size=(1, 1), stride=(1, 1))
  )
  (context_prediction): MaskedConv2d(192, 384, kernel_size=(5, 5), stride=(1, 1), padding=(2, 2))
)
22-09-21 18:38:05.632 - INFO: Learning rate: 0.0001
22-09-21 18:38:13.000 - INFO: Train epoch 0: [    0/16574 (0%)] Loss: 280.1626 | MSE loss: 0.3310 | Bpp loss: 0.3781 | Aux loss: 7906.76
22-09-21 18:38:19.595 - INFO: Train epoch 0: [  800/16574 (5%)] Loss: 25.6204 | MSE loss: 0.0296 | Bpp loss: 0.6025 | Aux loss: 7867.04
…
