22-08-30 11:57:48.885 - INFO: Namespace(aux_learning_rate=0.001, batch_size=8, checkpoint=None, clip_max_norm=1.0, config=None, cuda=True, dataset='/home/qororo606/flicker', epochs=500, experiment='MStanh_q3', gpu_id=0, learning_rate=0.0001, lmbda=0.0067, lsq=False, metrics='mse', model='ms-tanh', num_workers=4, patch_size=(256, 256), pretrain=False, quality=3, save=True, seed=None, test_batch_size=1)
22-08-30 11:57:48.886 - INFO: MSTanh(
  (entropy_bottleneck): EntropyBottleneck(
    (likelihood_lower_bound): LowerBound()
  )
  (g_a): Sequential(
    (0): Conv2d(3, 128, kernel_size=(5, 5), stride=(2, 2), padding=(2, 2))
    (1): Tanh()
    (2): Conv2d(128, 128, kernel_size=(5, 5), stride=(2, 2), padding=(2, 2))
    (3): Tanh()
    (4): Conv2d(128, 128, kernel_size=(5, 5), stride=(2, 2), padding=(2, 2))
    (5): Tanh()
    (6): Conv2d(128, 192, kernel_size=(5, 5), stride=(2, 2), padding=(2, 2))
  )
  (g_s): Sequential(
    (0): ConvTranspose2d(192, 128, kernel_size=(5, 5), stride=(2, 2), padding=(2, 2), output_padding=(1, 1))
    (1): Tanh()
    (2): ConvTranspose2d(128, 128, kernel_size=(5, 5), stride=(2, 2), padding=(2, 2), output_padding=(1, 1))
    (3): Tanh()
    (4): ConvTranspose2d(128, 128, kernel_size=(5, 5), stride=(2, 2), padding=(2, 2), output_padding=(1, 1))
    (5): Tanh()
    (6): ConvTranspose2d(128, 3, kernel_size=(5, 5), stride=(2, 2), padding=(2, 2), output_padding=(1, 1))
  )
  (h_a): Sequential(
    (0): Conv2d(192, 128, kernel_size=(3, 3), stride=(1, 1), padding=(1, 1))
    (1): Tanh()
    (2): Conv2d(128, 128, kernel_size=(5, 5), stride=(2, 2), padding=(2, 2))
    (3): Tanh()
    (4): Conv2d(128, 128, kernel_size=(5, 5), stride=(2, 2), padding=(2, 2))
  )
  (h_s): Sequential(
    (0): ConvTranspose2d(128, 192, kernel_size=(5, 5), stride=(2, 2), padding=(2, 2), output_padding=(1, 1))
    (1): Tanh()
    (2): ConvTranspose2d(192, 288, kernel_size=(5, 5), stride=(2, 2), padding=(2, 2), output_padding=(1, 1))
    (3): Tanh()
    (4): Conv2d(288, 384, kernel_size=(3, 3), stride=(1, 1), padding=(1, 1))
  )
  (gaussian_conditional): GaussianConditional(
    (likelihood_lower_bound): LowerBound()
    (lower_bound_scale): LowerBound()
  )
)
22-08-30 11:57:48.887 - INFO: Learning rate: 0.0001
22-08-30 11:57:52.303 - INFO: Train epoch 0: [    0/16574 (0%)] Loss: 161.3078 | MSE loss: 0.3695 | Bpp loss: 0.3095 | Aux loss: 5279.96
22-08-30 11:57:55.552 - INFO: Train epoch 0: [  800/16574 (5%)] Loss: 8.4821 | MSE loss: 0.0185 | Bpp loss: 0.4434 | Aux loss: 5250.65
…
