22-08-30 20:16:02.803 - INFO: Namespace(aux_learning_rate=0.001, batch_size=8, checkpoint=None, clip_max_norm=1.0, config=None, cuda=True, dataset='/home/qororo606/flicker', epochs=500, experiment='MSReLU6_q6', gpu_id=0, learning_rate=0.0001, lmbda=0.0483, lsq=False, metrics='mse', model='ms-relu6', num_workers=4, patch_size=(256, 256), pretrain=False, quality=6, save=True, seed=None, test_batch_size=1)
22-08-30 20:16:02.803 - INFO: MSReLU6(
  (entropy_bottleneck): EntropyBottleneck(
    (likelihood_lower_bound): LowerBound()
  )
  (g_a): Sequential(
    (0): Conv2d(3, 192, kernel_size=(5, 5), stride=(2, 2), padding=(2, 2))
    (1): ReLU6()
    (2): Conv2d(192, 192, kernel_size=(5, 5), stride=(2, 2), padding=(2, 2))
    (3): ReLU6()
    (4): Conv2d(192, 192, kernel_size=(5, 5), stride=(2, 2), padding=(2, 2))
    (5): ReLU6()
    (6): Conv2d(192, 320, kernel_size=(5, 5), stride=(2, 2), padding=(2, 2))
  )
  (g_s): Sequential(
    (0): ConvTranspose2d(320, 192, kernel_size=(5, 5), stride=(2, 2), padding=(2, 2), output_padding=(1, 1))
    (1): ReLU6()
    (2): ConvTranspose2d(192, 192, kernel_size=(5, 5), stride=(2, 2), padding=(2, 2), output_padding=(1, 1))
    (3): ReLU6()
    (4): ConvTranspose2d(192, 192, kernel_size=(5, 5), stride=(2, 2), padding=(2, 2), output_padding=(1, 1))
    (5): ReLU6()
    (6): ConvTranspose2d(192, 3, kernel_size=(5, 5), stride=(2, 2), padding=(2, 2), output_padding=(1, 1))
  )
  (h_a): Sequential(
    (0): Conv2d(320, 192, kernel_size=(3, 3), stride=(1, 1), padding=(1, 1))
    (1): ReLU6()
    (2): Conv2d(192, 192, kernel_size=(5, 5), stride=(2, 2), padding=(2, 2))
    (3): ReLU6()
    (4): Conv2d(192, 192, kernel_size=(5, 5), stride=(2, 2), padding=(2, 2))
  )
  (h_s): Sequential(
    (0): ConvTranspose2d(192, 320, kernel_size=(5, 5), stride=(2, 2), padding=(2, 2), output_padding=(1, 1))
    (1): ReLU6()
    (2): ConvTranspose2d(320, 480, kernel_size=(5, 5), stride=(2, 2), padding=(2, 2), output_padding=(1, 1))
    (3): ReLU6()
    (4): Conv2d(480, 640, kernel_size=(3, 3), stride=(1, 1), padding=(1, 1))
  )
  (gaussian_conditional): GaussianConditional(
    (likelihood_lower_bound): LowerBound()
    (lower_bound_scale): LowerBound()
  )
)
22-08-30 20:16:02.805 - INFO: Learning rate: 0.0001
22-08-30 20:16:05.232 - INFO: Train epoch 0: [    0/16574 (0%)] Loss: 970.0749 | MSE loss: 0.3087 | Bpp loss: 0.4514 | Aux loss: 7906.87
22-08-30 20:16:10.345 - INFO: Train epoch 0: [  800/16574 (5%)] Loss: 62.4403 | MSE loss: 0.0195 | Bpp loss: 1.3183 | Aux loss: 7869.61
…
