22-08-28 04:16:15.840 - INFO: Namespace(aux_learning_rate=0.001, batch_size=8, checkpoint=None, clip_max_norm=1.0, config=None, cuda=True, dataset='/home/qororo606/flicker', epochs=500, experiment='MS_q5', gpu_id=0, learning_rate=0.0001, lmbda=0.025, lsq=False, metrics='mse', model='mbt2018-mean', num_workers=4, patch_size=(256, 256), pretrain=False, quality=5, save=True, seed=None, test_batch_size=1)
22-08-28 04:16:15.841 - INFO: MeanScaleHyperprior(
  (entropy_bottleneck): EntropyBottleneck(
    (likelihood_lower_bound): LowerBound()
  )
  (g_a): Sequential(
    (0): Conv2d(3, 192, kernel_size=(5, 5), stride=(2, 2), padding=(2, 2))
    (1): GDN(
      (beta_reparam): NonNegativeParametrizer(
        (lower_bound): LowerBound()
      )
      (gamma_reparam): NonNegativeParametrizer(
        (lower_bound): LowerBound()
      )
    )
    (2): Conv2d(192, 192, kernel_size=(5, 5), stride=(2, 2), padding=(2, 2))
    (3): GDN(
      (beta_reparam): NonNegativeParametrizer(
        (lower_bound): LowerBound()
      )
      (gamma_reparam): NonNegativeParametrizer(
        (lower_bound): LowerBound()
      )
    )
    (4): Conv2d(192, 192, kernel_size=(5, 5), stride=(2, 2), padding=(2, 2))
    (5): GDN(
      (beta_reparam): NonNegativeParametrizer(
        (lower_bound): LowerBound()
      )
      (gamma_reparam): NonNegativeParametrizer(
        (lower_bound): LowerBound()
      )
    )
    (6): Conv2d(192, 320, kernel_size=(5, 5), stride=(2, 2), padding=(2, 2))
  )
  (g_s): Sequential(
    (0): ConvTranspose2d(320, 192, kernel_size=(5, 5), stride=(2, 2), padding=(2, 2), output_padding=(1, 1))
    (1): GDN(
      (beta_reparam): NonNegativeParametrizer(
        (lower_bound): LowerBound()
      )
      (gamma_reparam): NonNegativeParametrizer(
        (lower_bound): LowerBound()
      )
    )
    (2): ConvTranspose2d(192, 192, kernel_size=(5, 5), stride=(2, 2), padding=(2, 2), output_padding=(1, 1))
    (3): GDN(
      (beta_reparam): NonNegativeParametrizer(
        (lower_bound): LowerBound()
      )
      (gamma_reparam): NonNegativeParametrizer(
        (lower_bound): LowerBound()
      )
    )
    (4): ConvTranspose2d(192, 192, kernel_size=(5, 5), stride=(2, 2), padding=(2, 2), output_padding=(1, 1))
    (5): GDN(
      (beta_reparam): NonNegativeParametrizer(
        (lower_bound): LowerBound()
      )
      (gamma_reparam): NonNegativeParametrizer(
        (lower_bound): LowerBound()
      )
    )
    (6): ConvTranspose2d(192, 3, kernel_size=(5, 5), stride=(2, 2), padding=(2, 2), output_padding=(1, 1))
  )
  (h_a): Sequential(
    (0): Conv2d(320, 192, kernel_size=(3, 3), stride=(1, 1), padding=(1, 1))
    (1): LeakyReLU(negative_slope=0.01, inplace=True)
    (2): Conv2d(192, 192, kernel_size=(5, 5), stride=(2, 2), padding=(2, 2))
    (3): LeakyReLU(negative_slope=0.01, inplace=True)
    (4): Conv2d(192, 192, kernel_size=(5, 5), stride=(2, 2), padding=(2, 2))
  )
  (h_s): Sequential(
    (0): ConvTranspose2d(192, 320, kernel_size=(5, 5), stride=(2, 2), padding=(2, 2), output_padding=(1, 1))
    (1): LeakyReLU(negative_slope=0.01, inplace=True)
    (2): ConvTranspose2d(320, 480, kernel_size=(5, 5), stride=(2, 2), padding=(2, 2), output_padding=(1, 1))
    (3): LeakyReLU(negative_slope=0.01, inplace=True)
    (4): Conv2d(480, 640, kernel_size=(3, 3), stride=(1, 1), padding=(1, 1))
  )
  (gaussian_conditional): GaussianConditional(
    (likelihood_lower_bound): LowerBound()
    (lower_bound_scale): LowerBound()
  )
)
22-08-28 04:16:15.843 - INFO: Learning rate: 0.0001
22-08-28 04:16:21.937 - INFO: Train epoch 0: [    0/16574 (0%)] Loss: 331.4554 | MSE loss: 0.2036 | Bpp loss: 0.4794 | Aux loss: 7911.34
22-08-28 04:16:28.419 - INFO: Train epoch 0: [  800/16574 (5%)] Loss: 27.5531 | MSE loss: 0.0163 | Bpp loss: 1.0061 | Aux loss: 7875.03
…
