22-09-07 14:35:40.311 - INFO: Namespace(aux_learning_rate=0.001, basepoint=None, batch_size=8, checkpoint=None, clip_max_norm=1.0, config=None, cuda=True, dataset='/home/qororo606/flicker', epochs=500, experiment='MS_q3', gpu_id=0, learning_rate=0.0001, lmbda=0.0067, lsq=False, metrics='mse', model='ms-relu', num_workers=4, patch_size=(256, 256), pretrain=False, quality=3, save=True, seed=None, test_batch_size=1)
22-09-07 14:35:40.311 - INFO: MSReLU(
  (entropy_bottleneck): EntropyBottleneck(
    (likelihood_lower_bound): LowerBound()
  )
  (g_a): Sequential(
    (0): Conv2d(3, 128, kernel_size=(5, 5), stride=(2, 2), padding=(2, 2))
    (1): ReLU()
    (2): Conv2d(128, 128, kernel_size=(5, 5), stride=(2, 2), padding=(2, 2))
    (3): ReLU()
    (4): Conv2d(128, 128, kernel_size=(5, 5), stride=(2, 2), padding=(2, 2))
    (5): ReLU()
    (6): Conv2d(128, 192, kernel_size=(5, 5), stride=(2, 2), padding=(2, 2))
  )
  (g_s): Sequential(
    (0): ConvTranspose2d(192, 128, kernel_size=(5, 5), stride=(2, 2), padding=(2, 2), output_padding=(1, 1))
    (1): ReLU()
    (2): ConvTranspose2d(128, 128, kernel_size=(5, 5), stride=(2, 2), padding=(2, 2), output_padding=(1, 1))
    (3): ReLU()
    (4): ConvTranspose2d(128, 128, kernel_size=(5, 5), stride=(2, 2), padding=(2, 2), output_padding=(1, 1))
    (5): ReLU()
    (6): ConvTranspose2d(128, 3, kernel_size=(5, 5), stride=(2, 2), padding=(2, 2), output_padding=(1, 1))
  )
  (h_a): Sequential(
    (0): Conv2d(192, 128, kernel_size=(3, 3), stride=(1, 1), padding=(1, 1))
    (1): ReLU()
    (2): Conv2d(128, 128, kernel_size=(5, 5), stride=(2, 2), padding=(2, 2))
    (3): ReLU()
    (4): Conv2d(128, 128, kernel_size=(5, 5), stride=(2, 2), padding=(2, 2))
  )
  (h_s): Sequential(
    (0): ConvTranspose2d(128, 192, kernel_size=(5, 5), stride=(2, 2), padding=(2, 2), output_padding=(1, 1))
    (1): ReLU()
    (2): ConvTranspose2d(192, 288, kernel_size=(5, 5), stride=(2, 2), padding=(2, 2), output_padding=(1, 1))
    (3): ReLU()
    (4): Conv2d(288, 384, kernel_size=(3, 3), stride=(1, 1), padding=(1, 1))
  )
  (gaussian_conditional): GaussianConditional(
    (likelihood_lower_bound): LowerBound()
    (lower_bound_scale): LowerBound()
  )
)
22-09-07 14:35:40.313 - INFO: Learning rate: 0.0001
22-09-07 14:35:43.273 - INFO: Train epoch 0: [    0/16574 (0%)] Loss: 118.8310 | MSE loss: 0.2721 | Bpp loss: 0.2866 | Aux loss: 5274.49
22-09-07 14:35:47.133 - INFO: Train epoch 0: [  800/16574 (5%)] Loss: 7.7696 | MSE loss: 0.0166 | Bpp loss: 0.5257 | Aux loss: 5247.05
…
