…
841 - INFO: Namespace(aux_learning_rate=0.001, basepoint=None, batch_size=8, checkpoint=None, clip_max_norm=1.0, config=None, cuda=True, dataset='/home/qororo606/flicker', epochs=500, experiment='GMM_q4', gpu_id=0, learning_rate=0.0001, lmbda=0.013, lsq=False, metrics='mse', model='gmm-relu', num_workers=4, patch_size=(256, 256), pretrain=False, quality=4, save=True, seed=None, test_batch_size=1)
22-10-10 11:47:11.841 - INFO: GMMReLU(
  (entropy_bottleneck): EntropyBottleneck(
    (likelihood_lower_bound): LowerBound()
  )
  (g_a): Sequential(
    (0): ResidualBlockWithStrideReLU(
      (conv1): Conv2d(3, 192, kernel_size=(3, 3), stride=(2, 2), padding=(1, 1))
      (relu): ReLU()
      (conv2): Conv2d(192, 192, kernel_size=(3, 3), stride=(1, 1), padding=(1, 1))
      (skip): Conv2d(3, 192, kernel_size=(1, 1), stride=(2, 2))
    )
    (1): ResidualBlockReLU(
      (conv1): Conv2d(192, 192, kernel_size=(3, 3), stride=(1, 1), padding=(1, 1))
      (relu): ReLU()
      (conv2): Conv2d(192, 192, kernel_size=(3, 3), stride=(1, 1), padding=(1, 1))
    )
    (2): ResidualBlockWithStrideReLU(
      (conv1): Conv2d(192, 192, kernel_size=(3, 3), stride=(2, 2), padding=(1, 1))
      (relu): ReLU()
      (conv2): Conv2d(192, 192, kernel_size=(3, 3), stride=(1, 1), padding=(1, 1))
      (skip): Conv2d(192, 192, kernel_size=(1, 1), stride=(2, 2))
    )
    (3): ResidualBlockReLU(
      (conv1): Conv2d(192, 192, kernel_size=(3, 3), stride=(1, 1), padding=(1, 1))
      (relu): ReLU()
      (conv2): Conv2d(192, 192, kernel_size=(3, 3), stride=(1, 1), padding=(1, 1))
    )
    (4): ResidualBlockWithStrideReLU(
      (conv1): Conv2d(192, 192, kernel_size=(3, 3), stride=(2, 2), padding=(1, 1))
      (relu): ReLU()
      (conv2): Conv2d(192, 192, kernel_size=(3, 3), stride=(1, 1), padding=(1, 1))
      (skip): Conv2d(192, 192, kernel_size=(1, 1), stride=(2, 2))
    )
    (5): ResidualBlockReLU(
      (conv1): Conv2d(192, 192, kernel_size=(3, 3), stride=(1, 1), padding=(1, 1))
      (relu): ReLU()
      (conv2): Conv2d(192, 192, kernel_size=(3, 3), stride=(1, 1), padding=(1, 1))
    )
    (6): Conv2d(192, 192, kernel_size=(3, 3), stride=(2, 2), padding=(1, 1))
  )
  (g_s): Sequential(
    (0): ResidualBlockReLU(
      (conv1): Conv2d(192, 192, kernel_size=(3, 3), stride=(1, 1), padding=(1, 1))
      (relu): ReLU()
      (conv2): Conv2d(192, 192, kernel_size=(3, 3), stride=(1, 1), padding=(1, 1))
    )
    (1): ResidualBlockUpsample(
      (subpel_conv): Sequential(
        (0): Conv2d(192, 768, kernel_size=(3, 3), stride=(1, 1), padding=(1, 1))
        (1): PixelShuffle(upscale_factor=2)
      )
      (leaky_relu): LeakyReLU(negative_slope=0.01, inplace=True)
      (conv): Conv2d(192, 192, kernel_size=(3, 3), stride=(1, 1), padding=(1, 1))
      (igdn): GDN(
        (beta_reparam): NonNegativeParametrizer(
          (lower_bound): LowerBound()
        )
        (gamma_reparam): NonNegativeParametrizer(
          (lower_bound): LowerBound()
        )
      )
      (upsample): Sequential(
        (0): Conv2d(192, 768, kernel_size=(3, 3), stride=(1, 1), padding=(1, 1))
        (1): PixelShuffle(upscale_factor=2)
      )
    )
    (2): ResidualBlockReLU(
      (conv1): Conv2d(192, 192, kernel_size=(3, 3), stride=(1, 1), padding=(1, 1))
      (relu): ReLU()
      (conv2): Conv2d(192, 192, kernel_size=(3, 3), stride=(1, 1), padding=(1, 1))
    )
    (3): ResidualBlockUpsample(
      (subpel_conv): Sequential(
        (0): Conv2d(192, 768, kernel_size=(3, 3), stride=(1, 1), padding=(1, 1))
        (1): PixelShuffle(upscale_factor=2)
      )
      (leaky_relu): LeakyReLU(negative_slope=0.01, inplace=True)
      (conv): Conv2d(192, 192, kernel_size=(3, 3), stride=(1, 1), padding=(1, 1))
      (igdn): GDN(
        (beta_reparam): NonNegativeParametrizer(
          (lower_bound): LowerBound()
        )
        (gamma_reparam): NonNegativeParametrizer(
          (lower_bound): LowerBound()
        )
      )
      (upsample): Sequential(
        (0): Conv2d(192, 768, kernel_size=(3, 3), stride=(1, 1), padding=(1, 1))
        (1): PixelShuffle(upscale_factor=2)
      )
    )
    (4): ResidualBlockReLU(
      (conv1): Conv2d(192, 192, kernel_size=(3, 3), stride=(1, 1), padding=(1, 1))
      (relu): ReLU()
      (conv2): Conv2d(192, 192, kernel_size=(3, 3), stride=(1, 1), padding=(1, 1))
    )
    (5): ResidualBlockUpsample(
      (subpel_conv): Sequential(
        (0): Conv2d(192, 768, kernel_size=(3, 3), stride=(1, 1), padding=(1, 1))
        (1): PixelShuffle(upscale_factor=2)
      )
      (leaky_relu): LeakyReLU(negative_slope=0.01, inplace=True)
      (conv): Conv2d(192, 192, kernel_size=(3, 3), stride=(1, 1), padding=(1, 1))
      (igdn): GDN(
        (beta_reparam): NonNegativeParametrizer(
          (lower_bound): LowerBound()
        )
        (gamma_reparam): NonNegativeParametrizer(
          (lower_bound): LowerBound()
        )
      )
      (upsample): Sequential(
        (0): Conv2d(192, 768, kernel_size=(3, 3), stride=(1, 1), padding=(1, 1))
        (1): PixelShuffle(upscale_factor=2)
      )
    )
    (6): ResidualBlockReLU(
      (conv1): Conv2d(192, 192, kernel_size=(3, 3), stride=(1, 1), padding=(1, 1))
      (relu): ReLU()
      (conv2): Conv2d(192, 192, kernel_size=(3, 3), stride=(1, 1), padding=(1, 1))
    )
    (7): Sequential(
      (0): Conv2d(192, 12, kernel_size=(3, 3), stride=(1, 1), padding=(1, 1))
      (1): PixelShuffle(upscale_factor=2)
    )
  )
  (h_a): Sequential(
    (0): Conv2d(192, 192, kernel_size=(3, 3), stride=(1, 1), padding=(1, 1))
    (1): ReLU()
    (2): Conv2d(192, 192, kernel_size=(3, 3), stride=(1, 1), padding=(1, 1))
    (3): ReLU()
    (4): Conv2d(192, 192, kernel_size=(3, 3), stride=(2, 2), padding=(1, 1))
    (5): ReLU()
    (6): Conv2d(192, 192, kernel_size=(3, 3), stride=(1, 1), padding=(1, 1))
    (7): ReLU()
    (8): Conv2d(192, 192, kernel_size=(3, 3), stride=(2, 2), padding=(1, 1))
  )
  (h_s): Sequential(
    (0): Conv2d(192, 192, kernel_size=(3, 3), stride=(1, 1), padding=(1, 1))
    (1): ReLU()
    (2): Sequential(
      (0): Conv2d(192, 768, kernel_size=(3, 3), stride=(1, 1), padding=(1, 1))
      (1): PixelShuffle(upscale_factor=2)
    )
    (3): ReLU()
    (4): Conv2d(192, 288, kernel_size=(3, 3), stride=(1, 1), padding=(1, 1))
    (5): ReLU()
    (6): Sequential(
      (0): Conv2d(288, 1152, kernel_size=(3, 3), stride=(1, 1), padding=(1, 1))
      (1): PixelShuffle(upscale_factor=2)
    )
    (7): ReLU()
    (8): Conv2d(288, 384, kernel_size=(3, 3), stride=(1, 1), padding=(1, 1))
  )
  (gaussian_conditional): GaussianConditional(
    (likelihood_lower_bound): LowerBound()
    (lower_bound_scale): LowerBound()
  )
  (entropy_parameters): Sequential(
    (0): Conv2d(768, 640, kernel_size=(1, 1), stride=(1, 1))
    (1): ReLU()
    (2): Conv2d(640, 512, kernel_size=(1, 1), stride=(1, 1))
    (3): ReLU()
    (4): Conv2d(512, 384, kernel_size=(1, 1), stride=(1, 1))
  )
  (context_prediction): MaskedConv2d(192, 384, kernel_size=(5, 5), stride=(1, 1), padding=(2, 2))
)
22-10-10 11:47:11.844 - INFO: Learning rate: 0.0001
22-10-10 11:47:23.329 - INFO: Train epoch 0: [    0/16574 (0%)] Loss: 252.2679 | MSE loss: 0.2978 | Bpp loss: 0.5000 | Aux loss: 7914.60
