22-08-30 11:57:09.342 - INFO: Namespace(aux_learning_rate=0.001, batch_size=8, checkpoint=None, clip_max_norm=1.0, config=None, cuda=True, dataset='/home/qororo606/flicker', epochs=500, experiment='MSReLU6_q3', gpu_id=0, learning_rate=0.0001, lmbda=0.0067, lsq=False, metrics='mse', model='ms-relu6', num_workers=4, patch_size=(256, 256), pretrain=False, quality=3, save=True, seed=None, test_batch_size=1)
22-08-30 11:57:09.342 - INFO: MSReLU6(
  (entropy_bottleneck): EntropyBottleneck(
    (likelihood_lower_bound): LowerBound()
  )
  (g_a): Sequential(
    (0): Conv2d(3, 128, kernel_size=(5, 5), stride=(2, 2), padding=(2, 2))
    (1): ReLU6()
    (2): Conv2d(128, 128, kernel_size=(5, 5), stride=(2, 2), padding=(2, 2))
    (3): ReLU6()
    (4): Conv2d(128, 128, kernel_size=(5, 5), stride=(2, 2), padding=(2, 2))
    (5): ReLU6()
    (6): Conv2d(128, 192, kernel_size=(5, 5), stride=(2, 2), padding=(2, 2))
  )
  (g_s): Sequential(
    (0): ConvTranspose2d(192, 128, kernel_size=(5, 5), stride=(2, 2), padding=(2, 2), output_padding=(1, 1))
    (1): ReLU6()
    (2): ConvTranspose2d(128, 128, kernel_size=(5, 5), stride=(2, 2), padding=(2, 2), output_padding=(1, 1))
    (3): ReLU6()
    (4): ConvTranspose2d(128, 128, kernel_size=(5, 5), stride=(2, 2), padding=(2, 2), output_padding=(1, 1))
    (5): ReLU6()
    (6): ConvTranspose2d(128, 3, kernel_size=(5, 5), stride=(2, 2), padding=(2, 2), output_padding=(1, 1))
  )
  (h_a): Sequential(
    (0): Conv2d(192, 128, kernel_size=(3, 3), stride=(1, 1), padding=(1, 1))
    (1): ReLU6()
    (2): Conv2d(128, 128, kernel_size=(5, 5), stride=(2, 2), padding=(2, 2))
    (3): ReLU6()
    (4): Conv2d(128, 128, kernel_size=(5, 5), stride=(2, 2), padding=(2, 2))
  )
  (h_s): Sequential(
    (0): ConvTranspose2d(128, 192, kernel_size=(5, 5), stride=(2, 2), padding=(2, 2), output_padding=(1, 1))
    (1): ReLU6()
    (2): ConvTranspose2d(192, 288, kernel_size=(5, 5), stride=(2, 2), padding=(2, 2), output_padding=(1, 1))
    (3): ReLU6()
    (4): Conv2d(288, 384, kernel_size=(3, 3), stride=(1, 1), padding=(1, 1))
  )
  (gaussian_conditional): GaussianConditional(
    (likelihood_lower_bound): LowerBound()
    (lower_bound_scale): LowerBound()
  )
)
22-08-30 11:57:09.343 - INFO: Learning rate: 0.0001
22-08-30 11:57:14.078 - INFO: Train epoch 0: [    0/16574 (0%)] Loss: 104.9677 | MSE loss: 0.2403 | Bpp loss: 0.2891 | Aux loss: 5285.99
22-08-30 11:57:18.246 - INFO: Train epoch 0: [  800/16574 (5%)] Loss: 16.0349 | MSE loss: 0.0355 | Bpp loss: 0.5860 | Aux loss: 5259.66
…
