…
03 - INFO: Namespace(aux_learning_rate=0.001, basepoint=None, batch_size=8, checkpoint=None, clip_max_norm=1.0, config=None, cuda=True, dataset='/home/qororo606/flicker', epochs=500, experiment='GMM_q3', gpu_id=0, learning_rate=0.0001, lmbda=0.0067, lsq=False, metrics='mse', model='gmm-relu', num_workers=4, patch_size=(256, 256), pretrain=False, quality=3, save=True, seed=None, test_batch_size=1)
22-10-10 11:50:40.703 - INFO: GMMReLU(
  (entropy_bottleneck): EntropyBottleneck(
    (likelihood_lower_bound): LowerBound()
  )
  (g_a): Sequential(
    (0): ResidualBlockWithStrideReLU(
      (conv1): Conv2d(3, 128, kernel_size=(3, 3), stride=(2, 2), padding=(1, 1))
      (relu): ReLU()
      (conv2): Conv2d(128, 128, kernel_size=(3, 3), stride=(1, 1), padding=(1, 1))
      (skip): Conv2d(3, 128, kernel_size=(1, 1), stride=(2, 2))
    )
    (1): ResidualBlockReLU(
      (conv1): Conv2d(128, 128, kernel_size=(3, 3), stride=(1, 1), padding=(1, 1))
      (relu): ReLU()
      (conv2): Conv2d(128, 128, kernel_size=(3, 3), stride=(1, 1), padding=(1, 1))
    )
    (2): ResidualBlockWithStrideReLU(
      (conv1): Conv2d(128, 128, kernel_size=(3, 3), stride=(2, 2), padding=(1, 1))
      (relu): ReLU()
      (conv2): Conv2d(128, 128, kernel_size=(3, 3), stride=(1, 1), padding=(1, 1))
      (skip): Conv2d(128, 128, kernel_size=(1, 1), stride=(2, 2))
    )
    (3): ResidualBlockReLU(
      (conv1): Conv2d(128, 128, kernel_size=(3, 3), stride=(1, 1), padding=(1, 1))
      (relu): ReLU()
      (conv2): Conv2d(128, 128, kernel_size=(3, 3), stride=(1, 1), padding=(1, 1))
    )
    (4): ResidualBlockWithStrideReLU(
      (conv1): Conv2d(128, 128, kernel_size=(3, 3), stride=(2, 2), padding=(1, 1))
      (relu): ReLU()
      (conv2): Conv2d(128, 128, kernel_size=(3, 3), stride=(1, 1), padding=(1, 1))
      (skip): Conv2d(128, 128, kernel_size=(1, 1), stride=(2, 2))
    )
    (5): ResidualBlockReLU(
      (conv1): Conv2d(128, 128, kernel_size=(3, 3), stride=(1, 1), padding=(1, 1))
      (relu): ReLU()
      (conv2): Conv2d(128, 128, kernel_size=(3, 3), stride=(1, 1), padding=(1, 1))
    )
    (6): Conv2d(128, 128, kernel_size=(3, 3), stride=(2, 2), padding=(1, 1))
  )
  (g_s): Sequential(
    (0): ResidualBlockReLU(
      (conv1): Conv2d(128, 128, kernel_size=(3, 3), stride=(1, 1), padding=(1, 1))
      (relu): ReLU()
      (conv2): Conv2d(128, 128, kernel_size=(3, 3), stride=(1, 1), padding=(1, 1))
    )
    (1): ResidualBlockUpsampleReLU(
      (subpel_conv): Sequential(
        (0): Conv2d(128, 512, kernel_size=(3, 3), stride=(1, 1), padding=(1, 1))
        (1): PixelShuffle(upscale_factor=2)
      )
      (relu): ReLU()
      (conv): Conv2d(128, 128, kernel_size=(3, 3), stride=(1, 1), padding=(1, 1))
      (upsample): Sequential(
        (0): Conv2d(128, 512, kernel_size=(3, 3), stride=(1, 1), padding=(1, 1))
        (1): PixelShuffle(upscale_factor=2)
      )
    )
    (2): ResidualBlockReLU(
      (conv1): Conv2d(128, 128, kernel_size=(3, 3), stride=(1, 1), padding=(1, 1))
      (relu): ReLU()
      (conv2): Conv2d(128, 128, kernel_size=(3, 3), stride=(1, 1), padding=(1, 1))
    )
    (3): ResidualBlockUpsampleReLU(
      (subpel_conv): Sequential(
        (0): Conv2d(128, 512, kernel_size=(3, 3), stride=(1, 1), padding=(1, 1))
        (1): PixelShuffle(upscale_factor=2)
      )
      (relu): ReLU()
      (conv): Conv2d(128, 128, kernel_size=(3, 3), stride=(1, 1), padding=(1, 1))
      (upsample): Sequential(
        (0): Conv2d(128, 512, kernel_size=(3, 3), stride=(1, 1), padding=(1, 1))
        (1): PixelShuffle(upscale_factor=2)
      )
    )
    (4): ResidualBlockReLU(
      (conv1): Conv2d(128, 128, kernel_size=(3, 3), stride=(1, 1), padding=(1, 1))
      (relu): ReLU()
      (conv2): Conv2d(128, 128, kernel_size=(3, 3), stride=(1, 1), padding=(1, 1))
    )
    (5): ResidualBlockUpsampleReLU(
      (subpel_conv): Sequential(
        (0): Conv2d(128, 512, kernel_size=(3, 3), stride=(1, 1), padding=(1, 1))
        (1): PixelShuffle(upscale_factor=2)
      )
      (relu): ReLU()
      (conv): Conv2d(128, 128, kernel_size=(3, 3), stride=(1, 1), padding=(1, 1))
      (upsample): Sequential(
        (0): Conv2d(128, 512, kernel_size=(3, 3), stride=(1, 1), padding=(1, 1))
        (1): PixelShuffle(upscale_factor=2)
      )
    )
    (6): ResidualBlockReLU(
      (conv1): Conv2d(128, 128, kernel_size=(3, 3), stride=(1, 1), padding=(1, 1))
      (relu): ReLU()
      (conv2): Conv2d(128, 128, kernel_size=(3, 3), stride=(1, 1), padding=(1, 1))
    )
    (7): Sequential(
      (0): Conv2d(128, 12, kernel_size=(3, 3), stride=(1, 1), padding=(1, 1))
      (1): PixelShuffle(upscale_factor=2)
    )
  )
  (h_a): Sequential(
    (0): Conv2d(128, 128, kernel_size=(3, 3), stride=(1, 1), padding=(1, 1))
    (1): ReLU()
    (2): Conv2d(128, 128, kernel_size=(3, 3), stride=(1, 1), padding=(1, 1))
    (3): ReLU()
    (4): Conv2d(128, 128, kernel_size=(3, 3), stride=(2, 2), padding=(1, 1))
    (5): ReLU()
    (6): Conv2d(128, 128, kernel_size=(3, 3), stride=(1, 1), padding=(1, 1))
    (7): ReLU()
    (8): Conv2d(128, 128, kernel_size=(3, 3), stride=(2, 2), padding=(1, 1))
  )
  (h_s): Sequential(
    (0): Conv2d(128, 128, kernel_size=(3, 3), stride=(1, 1), padding=(1, 1))
    (1): ReLU()
    (2): Sequential(
      (0): Conv2d(128, 512, kernel_size=(3, 3), stride=(1, 1), padding=(1, 1))
      (1): PixelShuffle(upscale_factor=2)
    )
    (3): ReLU()
    (4): Conv2d(128, 192, kernel_size=(3, 3), stride=(1, 1), padding=(1, 1))
    (5): ReLU()
    (6): Sequential(
      (0): Conv2d(192, 768, kernel_size=(3, 3), stride=(1, 1), padding=(1, 1))
      (1): PixelShuffle(upscale_factor=2)
    )
    (7): ReLU()
    (8): Conv2d(192, 256, kernel_size=(3, 3), stride=(1, 1), padding=(1, 1))
  )
  (gaussian_conditional): GaussianConditional(
    (likelihood_lower_bound): LowerBound()
    (lower_bound_scale): LowerBound()
  )
  (entropy_parameters): Sequential(
    (0): Conv2d(512, 426, kernel_size=(1, 1), stride=(1, 1))
    (1): ReLU()
    (2): Conv2d(426, 341, kernel_size=(1, 1), stride=(1, 1))
    (3): ReLU()
    (4): Conv2d(341, 256, kernel_size=(1, 1), stride=(1, 1))
  )
  (context_prediction): MaskedConv2d(128, 256, kernel_size=(5, 5), stride=(1, 1), padding=(2, 2))
)
22-10-10 11:50:40.706 - INFO: Learning rate: 0.0001
22-10-10 11:50:44.109 - INFO: Train epoch 0: [    0/16574 (0%)] Loss: 129.8258 | MSE loss: 0.2973 | Bpp loss: 0.3139 | Aux loss: 5272.68
22-10-10 11:55:26.793 - INFO: Train epoch 0: [  800/16574 (5%)] Loss: 7.2998 | MSE loss: 0.0160 | Bpp loss: 0.3286 | Aux loss: 5243.54
…
